…
    tf.keras.layers.Conv2D(128, (3,3), activation='relu'),
    tf.keras.layers.MaxPooling2D(2,2),
    
    tf.keras.layers.Flatten(),
    tf.keras.layers.Dense(512, activation='relu'),
    tf.keras.layers.Dense(2)
])

model.compile(optimizer='adam',
              loss=tf.keras.losses.SparseCategoricalCrossentropy(from_logits=True),
              metrics=['accuracy'])
              
model.summary()

"""
Model: "sequential"
_________________________________________________________________
 Layer (type)                Output Shape              Param #   
=================================================================
 conv2d (Conv2D)             (None, 148, 148, 32)      896       
                                                                 
 max_pooling2d (MaxPooling2D  (None, 74, 74, 32)       0         
 )                                                               
                                                                 
 conv2d_1 (Conv2D)           (None, 72, 72, 64)        18496     
                                                                 
 max_pooling2d_1 (MaxPooling  (None, 36, 36, 64)       0         
 2D)                                                             
                                                                 
 conv2d_2 (Conv2D)           (None, 34, 34, 128)       73856     
                                                                 
 max_pooling2d_2 (MaxPooling  (None, 17, 17, 128)      0         
 2D)                                                             
                                                                 
 conv2d_3 (Conv2D)           (None, 15, 15, 128)       147584    
                                                                 
 max_pooling2d_3 (MaxPooling  (None, 7, 7, 128)        0         
 2D)                                                             
                                                                 
 flatten (Flatten)           (None, 6272)              0         
                                                                 
 dense (Dense)               (None, 512)               3211776   
                                                                 
 dense_1 (Dense)             (None, 2)                 1026      
                                                                 
=================================================================
Total params: 3,453,634
Trainable params: 3,453,634
Non-trainable params: 0
_________________________________________________________________

"""

EPOCHS = 100
history = model.fit_generator(
    train_data_gen,
    steps_per_epoch=int(np.ceil(total_train / float(BATCH_SIZE))),
…
